models/ae.pt (torch, 10052 bytes, 8 tensors)

weight f4 [16, 28]
0	0xbc7e634c	-0.015526604
1	0xbeb6402f	-0.35595843
2	0xbe2300b8	-0.15918243
3	0xbf0b28cb	-0.5435912
4	0x3f409799	0.7523132
5	0xbebe4965	-0.3716537
6	0xbe5e8666	-0.21730956
7	0xbec76594	-0.38944685
8	0xbeb0a844	-0.34503376
9	0xbe095745	-0.13412197
10	0xbe71bc8b	-0.2360708
11	0xbe9628e0	-0.2932806
12	0xbe7c0c1c	-0.24613994
13	0xbecb5f53	-0.39721164
14	0xbed32698	-0.41240382
15	0xbe6cf995	-0.23142083
16	0xbec8598f	-0.39130828
17	0xbe6e0d4e	-0.23247263
18	0xbeb1fec1	-0.34764674
19	0xbf329e43	-0.6977274
20	0xbeb476b4	-0.35246813
21	0xbeb915ad	-0.3614935
22	0xbec69755	-0.38787332
23	0xbee9399f	-0.45551774
24	0xbe8ff3c6	-0.28115672
25	0xbe6900fb	-0.2275428
26	0xbca9b4d0	-0.0207161
27	0x3ec7daa7	0.39034006
28	0xbe1028e7	-0.14078103
29	0xbcc617a2	-0.02418119
30	0xbd883633	-0.06650963
31	0x3dc4c350	0.096075654
32	0x3ca106fa	0.019656647
33	0x3d08eb9f	0.03342783
34	0xbde43b9d	-0.11144183
35	0x3d075e58	0.033048958
36	0x3dc7f213	0.09762969
37	0x3cd5be57	0.026091738
38	0xbe1f0e87	-0.15532885
39	0x3e0c2a5d	0.13688035
40	0xbdb32a39	-0.08748288
41	0x3e4ae33a	0.19813243
42	0xbb46556c	-0.0030263318
43	0xbd662f06	-0.05619719
44	0x3d4fdb35	0.05074616
45	0xbbdffa27	-0.0068352404
46	0x3a27697a	0.00063862617
47	0xbd87c402	-0.066291824
48	0x3d4d322a	0.05009667
49	0xbe05e5cb	-0.1307594
50	0xbe314f55	-0.17315419
51	0x3d8d6889	0.06904704
52	0xbe43ee82	-0.19133952
53	0xbd40324e	-0.046922974
54	0xbd64fded	-0.055906225
55	0xbe5ba8c8	-0.21451104
56	0xbe775a10	-0.2415545
57	0xbf88bdce	-1.0682924
58	0x3e1115c5	0.1416846
59	0x3eb6c437	0.35696575
60	0x3de03a7f	0.10948657
61	0x3e5ea34a	0.21741977
62	0x3e4947e0	0.19656324
63	0x3da0168c	0.078168005
64	0x3e592c32	0.21208265
65	0xbe1fef24	-0.15618569
66	0xbc10efab	-0.008846204
67	0xbfa3c96f	-1.2795848
68	0x3dacb33d	0.084326245
69	0x3df9c752	0.121962205
70	0x3e408b62	0.1880317
71	0x3e1c1233	0.15241317
72	0x3e5df9cf	0.21677326
73	0x3e932de7	0.28745958
74	0xbda4cb1d	-0.08046553
75	0x3e4d8ab7	0.20072447
76	0x3dfed118	0.12442225
77	0x3e155c71	0.14586045
78	0xbe81e462	-0.25369555
79	0xbe9615ae	-0.29313415
80	0x3e2103f6	0.15724167
81	0xbd48f952	-0.049065895
82	0xbdd07d36	-0.10180132
83	0x3fa0f9a6	1.2576187
84	0x3ea3e6b8	0.32011962
85	0xbf550542	-0.8321115
86	0x3eb7980b	0.35858187
87	0x3f1d2c9f	0.6139621
88	0xbf7f1790	-0.9964533
89	0x3ed6a76b	0.41924605
90	0x3f1c8e1a	0.6115433
91	0x3ee5dc9f	0.44894883
92	0x3f25f3d0	0.64825153
93	0x3e9e57ce	0.30926365
94	0x3ef19072	0.47180516
95	0xbd461b4b	-0.048365872
96	0x3e934834	0.28766024
97	0x3ee1bf36	0.44091195
98	0x3f0ea7d5	0.5572484
99	0x3ea9fa34	0.33198702
100	0x3f1fc2f2	0.6240684
101	0x3f36d78c	0.7142265
102	0x3ef64e10	0.48106432
103	0x3f0e0a89	0.55484825
104	0x3f07c757	0.53038543
105	0x3f26073d	0.64854795
106	0xbe84ed81	-0.2596245
107	0xbea014b0	-0.31265783
108	0xbf5ebccc	-0.8700683
109	0xbe656b32	-0.22404173
110	0x3dba94c4	0.09110406
111	0xbb8b96f0	-0.0042599365
112	0x3f717986	0.94326055
113	0xbc1ac045	-0.009445255
114	0xbedec573	-0.43510017
115	0xbf2baada	-0.67057574
116	0x3ee9fadc	0.45699203
117	0xbf1985c0	-0.5996971
118	0xbec21e57	-0.37913772
119	0xbf0e00ae	-0.5546979
120	0xbee7f3d9	-0.45303228
121	0xbf4b9bc1	-0.79534537
122	0xbee0fc78	-0.43942618
123	0xbdb71317	-0.08939188
124	0xbed01940	-0.40644264
125	0xbed49040	-0.41516304
126	0xbed80ca3	-0.4219714
127	0xbee390a0	-0.44446278
128	0xbebf8ae9	-0.37410668
129	0xbf00c365	-0.5029815
130	0xbeb1ba20	-0.34712315
131	0xbed57c7b	-0.41696534
132	0xbf01d9a0	-0.50722694
133	0xbed43d0d	-0.41452828
134	0xbce67e74	-0.02813647
135	0x3e87a13a	0.26490194
136	0x3eaf43d5	0.3423144
137	0x3c621d2c	0.0138009
138	0xbc0f8260	-0.008759111
139	0x3eabce39	0.33555773
140	0x3f31d5b8	0.69466734
141	0xbf565afd	-0.8373259
142	0x3ef46cf7	0.47739384
143	0x3da5edbc	0.08101985
144	0xbf420a51	-0.7579699
145	0x3e1d9f04	0.15392691
146	0x3ded5057	0.11587589
147	0x3e9702b9	0.29494265
148	0x3eb6f73d	0.35735503
149	0x3e856f75	0.26061597
150	0x3ea89f38	0.32933974
151	0xbeda5d64	-0.42649376
152	0x3ed051a9	0.40687302
153	0x3e8e5119	0.27796248
154	0x3ecef0d8	0.40418124
155	0x3e65c0cb	0.22436826
156	0x3ede57d6	0.43426389
157	0x3eb39f58	0.35082507
158	0x3e98bc7b	0.298313
159	0x3ee4aca2	0.44662958
160	0x3ea3eb87	0.3201563
161	0x3edd4d05	0.43222824
162	0xbe80d1f0	-0.2516017
163	0xbc6de826	-0.0145206805
164	0xbeb295a7	-0.348798
165	0x3e6e2db6	0.23259625
166	0x3e4b710e	0.19867346
167	0x3e08220d	0.1329424
168	0x3f161bec	0.58636355
169	0xbfa96b63	-1.3235897
170	0x3ee1a24e	0.4406914
171	0x3eb5d05d	0.3551053
172	0xbfa55c0d	-1.2918717
173	0x3e2a6cac	0.16643018
174	0x3ea61cd4	0.3244387
175	0x3eee5bd8	0.46554446
176	0x3e0d161e	0.13777968
177	0x3e20e3cb	0.15711896
178	0x3ecfe685	0.4060556
179	0x3e8a411d	0.27002802
180	0x3eeac3c5	0.45852485
181	0x3e7d486d	0.2473466
182	0x3ed3bea0	0.41356373
183	0x3ed25fe6	0.4108879
184	0x3ed6eede	0.41979116
185	0x3ec16096	0.37769002
186	0x3ec9359c	0.39298713
187	0x3ec7a825	0.38995472
188	0x3f0d9d68	0.5531831
189	0x3ea33098	0.31873012
190	0x3e45a8b2	0.19302633
191	0x3d7c0e90	0.061537325
192	0x3ce682a0	0.028138459
193	0xbe6c4766	-0.23074111
194	0x3d6419a9	0.055688534
195	0xbbd1502b	-0.0063877306
196	0x3f5447d2	0.8292209
197	0xbe8cf974	-0.27534068
198	0x3df55de4	0.11980799
199	0x3e29578f	0.16537307
200	0xbf08446a	-0.5322939
201	0x3e863b58	0.2621715
202	0x3da93a6a	0.08263095
203	0x3ddf339b	0.10898515
204	0x3ea67cfc	0.3251723
205	0x3bce88f3	0.0063029467
206	0x3e3ced5e	0.18449923
207	0x3f390e43	0.72287387
208	0x3d398037	0.04528829
209	0x3e4fd536	0.20296177
210	0x3e757863	0.23971705
211	0x3dd67cda	0.10473032
212	0x3d874df6	0.06606667
213	0x3e81b118	0.25330424
214	0xbc7577a7	-0.014982141
215	0x3e656ae4	0.22404057
216	0x3d94febd	0.0727515
217	0x3e82ddcf	0.25559852
218	0x3e421ceb	0.18956344
219	0x3dc3dc73	0.09563532
220	0x3d1678cd	0.0367363
221	0xbe48db82	-0.19614986
222	0x3dd12456	0.10212009
223	0xbe36f30a	-0.1786615
224	0xbe93d533	-0.28873596
225	0xbfb8a9e3	-1.4426845
226	0x3e013ef9	0.12621678
227	0x3dce5500	0.10074806
228	0x3ac0bad3	0.0014704115
229	0x3e4c4a8a	0.1995031
230	0x3d9a3d9f	0.075312845
231	0x3e436034	0.19079667
232	0x3e572786	0.2101117
233	0x3e47ab1e	0.1949887
234	0x3eaa23f8	0.33230567
235	0xbfce1655	-1.6100565
236	0x3de38b15	0.11110512
237	0x3e37f143	0.17963128
238	0x3e46fd9f	0.19432686
239	0x3df7cc3d	0.12099502
240	0x3dfce7bb	0.123488866
241	0x3eb16793	0.34649333
242	0x3e69adcb	0.22820203
243	0x3e31903b	0.17340176
244	0x3e2b66a4	0.16738373
245	0x3e5c1686	0.21492967
246	0x3d9748e6	0.07386951
247	0x3dfb3a81	0.12267018
248	0x3f4e7202	0.8064271
249	0x3d7ec3ab	0.062198322
250	0x3c1f6ffd	0.00973129
251	0x3f9bf030	1.2182674
252	0x3f70c2be	0.94047153
253	0x3e90ea63	0.28303823
254	0xbf0a113c	-0.5393255
255	0xbec8977a	-0.39178067

bias f4 [16]
0	0xbf067099	-0.5251556
1	0xbe88f0e9	-0.267463
2	0x3db567d9	0.08857698
3	0x3e9b3e21	0.30320838
4	0xbe9402a5	-0.28908268
5	0xbe066774	-0.13125402
6	0x3e24046c	0.16017312
7	0x3de27d00	0.11058998
8	0x3dc0778f	0.09397804
9	0xbd53199d	-0.0515381
10	0x3e303ce2	0.17210725
11	0xbed23805	-0.41058365
12	0x3c9fc6d5	0.01950399
13	0xbe8bd8e1	-0.27313903
14	0x3dddff05	0.10839657
15	0xbe011e56	-0.12609228

weight f4 [8, 16]
0	0xbdbd0fc4	-0.09231523
1	0x3df5c285	0.11999992
2	0x3e086aa0	0.13321924
3	0xbe5ad204	-0.21369177
4	0xbc9da582	-0.01924396
5	0xbdf02a2c	-0.11726794
6	0x3d2bd884	0.041954532
7	0xbdb873d7	-0.0900647
8	0xbdb41dcd	-0.087947465
9	0xbbcbcb85	-0.00621933
10	0xbcc79d38	-0.02436696
11	0xbd30f3f0	-0.043201387
12	0xbe05b044	-0.13055521
13	0xbe1a5a74	-0.15073568
14	0xbe756a1c	-0.23966259
15	0xbdda7c38	-0.10668224
16	0x3c265ca0	0.010153919
17	0xbe24b0d4	-0.1608308
18	0xbe430654	-0.19045383
19	0x3d559b90	0.05215031
20	0xbe7c281c	-0.24624676
21	0xbd4622e0	-0.048373103
22	0xbe4f0a5e	-0.20218799
23	0xbe5b9dae	-0.21446869
24	0xbde317a4	-0.110884935
25	0xbe27c89e	-0.16385123
26	0xbe0160ee	-0.12634632
27	0xbd82ded0	-0.06390154
28	0xbdfbda80	-0.12297535
29	0xbe733fba	-0.23754779
30	0xbca0bbd0	-0.019620806
31	0xbe6f2f5a	-0.23357907
32	0x3ecd29a0	0.4007082
33	0x3d7c0f21	0.061537866
34	0x3f512040	0.81689835
35	0xbea46b7d	-0.32113257
36	0x3eb33474	0.35000956
37	0xbd309a1f	-0.04311573
38	0x3edbc66d	0.42924824
39	0xbc28b9bd	-0.01029819
40	0x3f906095	1.1279474
41	0x3d738125	0.059449334
42	0xbf83f5ab	-1.0309347
43	0x3ee92b35	0.45540777
44	0x3eb5fde7	0.35545275
45	0x3db8d749	0.090254374
46	0x3e31bf79	0.17358197
47	0x3dd5fe4a	0.104488924
48	0xbf21d24e	-0.63211524
49	0x3eac09ab	0.33601126
50	0x3d637b5c	0.055537567
51	0x3eb89ab2	0.36055523
52	0xbe494b26	-0.19657573
53	0x3e99245d	0.29910555
54	0x3f431147	0.7619824
55	0x3ef4c5ad	0.47807065
56	0x3e81e52a	0.2537015
57	0xbd9aa966	-0.075518414
58	0xbe7650c2	-0.24054244
59	0xbf13fd61	-0.578085
60	0x3f28ecbf	0.65986246
61	0xbdbc2ce8	-0.09188253
62	0x3f2de52a	0.679278
63	0x3d9d2748	0.07673508
64	0x3e44ca48	0.19217789
65	0x3df71f14	0.120664746
66	0xbc00fe40	-0.007873118
67	0xbe56ba3c	-0.2096948
68	0xbebab406	-0.36465472
69	0x3e1b2596	0.15151057
70	0xbf08fcc9	-0.5351072
71	0xbd9298af	-0.07158028
72	0xbdd24e70	-0.10268867
73	0xbddbffa4	-0.10742119
74	0xbebff7b4	-0.3749367
75	0xbe4cf76c	-0.20016259
76	0xbd37e344	-0.04489447
77	0xbe6abae2	-0.22922853
78	0xbe7aa0b8	-0.24475372
79	0x3d3f2ef0	0.046675622
80	0x3cd8b85e	0.0264551
81	0x3d188598	0.03723678
82	0xbdbecbd8	-0.09316224
83	0xbe0919ef	-0.13388799
84	0x3d84962e	0.06473957
85	0xbc1a1480	-0.009404302
86	0xbe036539	-0.12831582
87	0x3d96abec	0.0735701
88	0x3c9a6fea	0.018852193
89	0xbe50077a	-0.20315352
90	0xbe3507e6	-0.17678794
91	0xbcbecd77	-0.023291333
92	0x3e1f5523	0.15559821
93	0x3ceff460	0.029291332
94	0xbd25279e	-0.040320985
95	0xbe454692	-0.19265202
96	0xbeaf5ebd	-0.34251967
97	0x3e2dcdcb	0.16973035
98	0xbe051d1d	-0.12999387
99	0x3e480e03	0.19536595
100	0xbeb6795e	-0.3563947
101	0x3e5b615b	0.21423857
102	0x3e97f9ae	0.29682678
103	0x3e36106b	0.177797
104	0xbea6adeb	-0.32554564
105	0xbe271cca	-0.16319576
106	0xbe0bd615	-0.13655885
107	0xbbb68195	-0.0055696466
108	0x3cff35a7	0.031153513
109	0xbcf6494f	-0.030064253
110	0x3e55471c	0.20827907
111	0xbdfead72	-0.12435426
112	0x3e1a789c	0.15085071
113	0x3d2642d5	0.04059108
114	0xbe4bf3a4	-0.1991716
115	0xbf1215f0	-0.57064724
116	0x3ed9f18a	0.42567092
117	0xbed9429a	-0.42433625
118	0x3dc9f519	0.09861202
119	0x3f140875	0.57825404
120	0x3ddba522	0.10724856
121	0x3f26c4c1	0.6514397
122	0x3e5ed4bb	0.21760838
123	0x3e505565	0.20345075
124	0xbdfdb49d	-0.12387965
125	0x3e3c6396	0.18397364
126	0xbea337ea	-0.31878597
127	0xbdf15a56	-0.11784808

bias f4 [8]
0	0xbdfa3f12	-0.12219061
1	0x3c60af40	0.013713658
2	0xbdb6d85c	-0.08927986
3	0xbc378f8b	-0.011203657
4	0xbec6d4db	-0.3883427
5	0xbe89e635	-0.26933447
6	0x3e5d8879	0.21634091
7	0x3ef71fe1	0.4826651

weight f4 [16, 8]
0	0x3e23b262	0.15986016
1	0xbe9a6c05	-0.30160537
2	0xbe5f2845	-0.21792705
3	0xbd11c3b6	-0.035587035
4	0x3e356f91	0.1771834
5	0xbe9394ea	-0.2882455
6	0xbd5fdf40	-0.054656267
7	0xbdbfc975	-0.09364597
8	0x3ea36add	0.31917468
9	0x3da0cadf	0.078511946
10	0x3d5e8639	0.054327223
11	0xbb8bf844	-0.004271539
12	0x3e751467	0.23933564
13	0x3e2bd052	0.16778687
14	0xbe4f7f27	-0.20263349
15	0xbec922b3	-0.39284286
16	0xbe94b5c6	-0.29044932
17	0xbe602abe	-0.21891305
18	0x3d4e5517	0.050374117
19	0x3e565190	0.20929551
20	0x3e0b266f	0.1358888
21	0x3db78bd3	0.08962216
22	0x3e062254	0.13099033
23	0x3f26393f	0.649311
24	0x3dd3f283	0.1034899
25	0x3b981c04	0.0046420116
26	0x3f0c0839	0.54700047
27	0xbeb66a1d	-0.35627833
28	0x3e32f3b7	0.17475782
29	0x3c32c3c6	0.010910934
30	0xbe9861f6	-0.29762238
31	0xbe13cb4c	-0.1443302
32	0x3e886b1b	0.26644215
33	0x3e63e64c	0.2225582
34	0x3e081903	0.13290791
35	0xbf82ccc2	-1.0218737
36	0xbead1abb	-0.33809456
37	0xbb9c4272	-0.004768663
38	0xbeb9536b	-0.36196455
39	0x3f39db98	0.726007
40	0x3e56ef4e	0.20989725
41	0xbd0fd345	-0.03511359
42	0xbd96d311	-0.073644765
43	0xbd9ad7c9	-0.07560689
44	0xbe80aee9	-0.25133446
45	0x3e24397a	0.1603755
46	0x3dd4c120	0.10388398
47	0xbe42006b	-0.18945472
48	0x3e3a8ca8	0.18217719
49	0xbe25b356	-0.16181692
50	0xbd3a443f	-0.04547524
51	0xbe471761	-0.19442512
52	0x3d9f5536	0.077799246
53	0xbed1c47c	-0.40970218
54	0x3e591949	0.21201052
55	0xbec3eb33	-0.3826538
56	0xbda412f0	-0.080114245
57	0xbe0ff0c5	-0.1405669
58	0xbeba7f31	-0.36425164
59	0x3b81dabe	0.0039628437
60	0xbe9f219a	-0.31080323
61	0xbdcc9e12	-0.09991087
62	0xbc77cc3a	-0.015124375
63	0x3cb48bc2	0.022039298
64	0xbe7b5a6b	-0.2454621
65	0x3d57c3a5	0.052676816
66	0x3d5ba027	0.05361953
67	0xbea5d11a	-0.32386094
68	0xbe839b6f	-0.25704524
69	0xbc967777	-0.018367512
70	0xbd94a354	-0.07257715
71	0xbcbe483e	-0.023227807
72	0xbdbcfe74	-0.092282206
73	0x3db85914	0.09001365
74	0x3c86db1e	0.016461905
75	0x3b496727	0.003073165
76	0x3e46dc84	0.19420058
77	0x3de805e6	0.1132925
78	0xbe02ed70	-0.12785888
79	0xbea25311	-0.31704
80	0xbe8584e6	-0.26077956
81	0x3d172142	0.03689695
82	0xbf503022	-0.81323445
83	0xbd85171d	-0.06498549
84	0x3e800529	0.25003937
85	0x3e190618	0.14943731
86	0x3ecae7a1	0.39629844
87	0x3e5233ee	0.20527622
88	0x3e8ba5d2	0.27274948
89	0xbcd0f665	-0.025508115
90	0x3af9d550	0.0019060764
91	0x3ef96760	0.4871168
92	0xbec7a361	-0.38991836
93	0x3e914deb	0.2837976
94	0x3cd1b3db	0.025598457
95	0x3ee4cb59	0.44686392
96	0x3ecd71fd	0.4012603
97	0x3d9af653	0.07566514
98	0xbef64b50	-0.48104334
99	0x3e695e06	0.22789773
100	0x3e83f235	0.25770727
101	0xbe871ebc	-0.26390636
102	0x3ee2d747	0.4430487
103	0xbe176e62	-0.14788201
104	0x3e24420c	0.1604082
105	0xbd4ad247	-0.049516942
106	0x3d9599c6	0.073047206
107	0xbe94a29f	-0.2903032
108	0x3e623dec	0.22093934
109	0xbe92b32a	-0.28652316
110	0xbe0e6bb8	-0.13908279
111	0xbe231450	-0.15925717
112	0x3d945a39	0.07243771
113	0x3e3e9cf9	0.18614568
114	0x3e0e2e93	0.13884954
115	0x3f017b12	0.50578415
116	0x3e7a3b25	0.24436624
117	0x3ec4c76c	0.38433397
118	0x3e9480c4	0.2900449
119	0xbf52e604	-0.82382226
120	0xbe0402b1	-0.12891652
121	0xbe142be7	-0.14469872
122	0xbfeb7a32	-1.8396666
123	0xbf808542	-1.0040667
124	0x3e4aeb25	0.19816263
125	0xbeae6f1d	-0.34069148
126	0xbeef62f6	-0.4675519
127	0x3e01b0a3	0.12665038

bias f4 [16]
0	0xbcebdf53	-0.028793013
1	0xbe910ed6	-0.2833163
2	0xbef2d05c	-0.4742459
3	0xbd73a6a3	-0.05948509
4	0xbd51e7e6	-0.051246546
5	0x3c06afef	0.008220657
6	0xbef35634	-0.47526705
7	0xbe71cbdf	-0.23612927
8	0xbead898b	-0.33894
9	0xbdb0ac1a	-0.08626576
10	0x3f7e8cff	0.9943389
11	0xbedf3eda	-0.4360264
12	0x3ec5382d	0.3851942
13	0xbea5cd35	-0.32383123
14	0x3d2ca73c	0.042151675
15	0x3f2cb78f	0.6746759

weight f4 [28, 16]
0	0xbdc024c8	-0.093820155
1	0xbe0cdc24	-0.13755852
2	0x3ec245a4	0.37943757
3	0xbe24032d	-0.16016836
4	0x3f0df4dc	0.5545175
5	0x3e7a7660	0.24459219
6	0xbe4a638d	-0.19764538
7	0xbdc9caf0	-0.098531604
8	0x3e58c423	0.2116857
9	0x3d44f620	0.048086286
10	0x3cc6c549	0.024263995
11	0x3eee01c8	0.46485734
12	0x3d9d7ad0	0.0768944
13	0x3d662e88	0.05619672
14	0x3e6360b1	0.22204854
15	0xbdfdd588	-0.123942435
16	0xbe87cfd9	-0.26525763
17	0xbd35eda0	-0.04441607
18	0xbe248323	-0.1606565
19	0xbf9ed23a	-1.2407906
20	0x3dde9fe2	0.10870339
21	0xbe82d4bd	-0.2555293
22	0x3c8deef0	0.017325848
23	0xbd10ca83	-0.03534938
24	0xbc3d959e	-0.011571316
25	0x3e29a239	0.1656579
26	0x3e0ae093	0.13562231
27	0xbe95adf4	-0.29234278
28	0x3da6ef8b	0.08151158
29	0xbe5cf5f1	-0.21578194
30	0xbed345e5	-0.41264263
31	0x3f86b8e9	1.052518
32	0x3d96f79a	0.07371445
33	0x3e53f372	0.20698336
34	0x3be2d5c0	0.0069224536
35	0xbf3ea3e9	-0.7446886
36	0xbdd0bd27	-0.10192328
37	0x3e02e5e7	0.12783013
38	0x3e3f16de	0.18661067
39	0xbe24b254	-0.16083652
40	0x3dc9e8a4	0.09858826
41	0x3e31719e	0.17328498
42	0xbea163ba	-0.31521398
43	0xbe94d9a4	-0.29072297
44	0xbcb7b3b0	-0.022424549
45	0x3e0df2ac	0.13862103
46	0xbe956adc	-0.2918309
47	0xbe4afe53	-0.1982358
48	0x3c793e00	0.015212536
49	0xbe880ca6	-0.2657215
50	0xbd985551	-0.07438148
51	0xbd927530	-0.07151258
52	0xbe26598a	-0.16245094
53	0xbdf52f34	-0.11971894
54	0x3dd37951	0.10325874
55	0xbe7f2f7a	-0.24920455
56	0x3d4bfe40	0.04980302
57	0x3d8c62f4	0.06854811
58	0xbe3f64e0	-0.18690825
59	0xbe07a123	-0.13245063
60	0xbc04bb80	-0.008101344
61	0x3c970e80	0.018439531
62	0x3dc8205c	0.09771797
63	0xbcb988a0	-0.022648156
64	0x3e0ca2f7	0.13734041
65	0xbe3f90be	-0.18707559
66	0xbe9ac7c9	-0.3023055
67	0xbe1d1844	-0.15341288
68	0x3ef9567d	0.48698798
69	0x3d6e9fc8	0.058257848
70	0xbdd5545b	-0.1041648
71	0xbdbcc556	-0.09217326
72	0xbc5f3dff	-0.013625621
73	0x3d9dc398	0.07703322
74	0xbdb61d3f	-0.08892297
75	0xbf02d989	-0.5111318
76	0xbf41d04a	-0.7570845
77	0xbc56e1c2	-0.013115348
78	0xbfab1032	-1.3364317
79	0xbfb1c64e	-1.3888643
80	0xbe582fc0	-0.21111965
81	0x3e006bf4	0.12541181
82	0xbef502a2	-0.4785357
83	0xbd257f4b	-0.0404046
84	0xbe64bee6	-0.22338447
85	0xbe311fcf	-0.1729729
86	0x3da98060	0.08276439
87	0xbe6ae45e	-0.22938678
88	0x3de3474c	0.11097583
89	0xbe69381e	-0.22775313
90	0x3d2e78e2	0.04259575
91	0xbe609b6c	-0.21934289
92	0xbdd8b297	-0.10580938
93	0x3e52906a	0.20562902
94	0xbe6c78fc	-0.23093027
95	0xbe630404	-0.221695
96	0x3e2242a0	0.15845728
97	0xbdee0820	-0.116226435
98	0xbe4adf04	-0.19811636
99	0xbe7b0972	-0.24515322
100	0xbdc1791c	-0.09446928
101	0xbd1911b0	-0.037370384
102	0xbd261498	-0.040546983
103	0x3e236136	0.15955052
104	0xbe0f3256	-0.13984045
105	0x3d1c4628	0.038152844
106	0xbdab7300	-0.08371544
107	0xbc618400	-0.013764381
108	0xbe56fcc0	-0.20994854
109	0x3dfcb7c4	0.12339738
110	0xbe27394e	-0.16330454
111	0x3e457310	0.19282174
112	0x3d8a2427	0.06745177
113	0xbd97f741	-0.07420207
114	0xbf11e4f9	-0.5699001
115	0xbf75360c	-0.95785594
116	0xbed5b01c	-0.41735923
117	0x3cbdae10	0.023154289
118	0xbe44a88a	-0.19204918
119	0x3d61689a	0.055031396
120	0x3d40163d	0.046896208
121	0xbdc02f9a	-0.09384079
122	0xbe2ba2df	-0.16761349
123	0xbf0e5b12	-0.5560771
124	0xbefb54c3	-0.49088106
125	0xbea8b270	-0.32948637
126	0xbd546c92	-0.051861353
127	0x3d5077d1	0.050895516
128	0xbdef71c4	-0.11691621
129	0xbc9b5090	-0.018959314
130	0xbe3d0c9e	-0.18461844
131	0xbe4229bb	-0.18961231
132	0xbddbae2f	-0.10726582
133	0x3ddac258	0.106815994
134	0x3de3d448	0.11124474
135	0x3e18164e	0.14852259
136	0xbe3074d8	-0.17232072
137	0xbe0a0d0a	-0.13481537
138	0xbdf0f146	-0.11764769
139	0xbe855137	-0.26038525
140	0xbdc0e398	-0.0941841
141	0x3e6d2664	0.23159176
142	0xbf02ccf2	-0.5109397
143	0xbdcd0a68	-0.100117505
144	0x3c239680	0.009984612
145	0x3ce807ae	0.028323974
146	0xbe351951	-0.17685439
147	0x3db254bb	0.08707567
148	0xbe5f3660	-0.21798086
149	0xbe6c91da	-0.23102513
150	0xbe599cdf	-0.21251248
151	0xbe2cab18	-0.16862142
152	0x3d827124	0.06369236
153	0xbe1aaac8	-0.1510421
154	0xbd94eb1a	-0.072714046
155	0xbcc648f0	-0.024204701
156	0xbc82c990	-0.015965253
157	0xbcfcc900	-0.030857563
158	0x3d52e483	0.051487457
159	0xbc1d0d60	-0.009585708
160	0x3de43c65	0.11144332
161	0x3c7ecf80	0.015552402
162	0xbd764829	-0.06012741
163	0xbf003492	-0.50080216
164	0xbcc40f53	-0.023933088
165	0x3d967013	0.07345595
166	0xbe54531e	-0.20734832
167	0x3e0f8bb3	0.14018135
168	0xbca3b160	-0.01998204
169	0xbe2166e8	-0.15761912
170	0xbebb4474	-0.36575663
171	0xbe5dbb68	-0.21653521
172	0xbe049e6e	-0.12951061
173	0x3c2b5920	0.010458261
174	0xbe433711	-0.19063975
175	0xbd70bcc0	-0.058773756
176	0x3cc644a4	0.024202652
177	0xbe793740	-0.24337482
178	0x3e130060	0.14355612
179	0xc011be40	-2.277237
180	0xbf7a4d5e	-0.977743
181	0xbdd0e293	-0.101994656
182	0x3e736492	0.23768833
183	0xbdc96929	-0.09834511
184	0x3d1c5186	0.038163684
185	0x3997bad6	0.00028940168
186	0x3eb00fda	0.34387094
187	0x3ce600c8	0.028076544
188	0xbd9b6fd4	-0.07589689
189	0xbe98d1be	-0.2984752
190	0xbf555430	-0.83331585
191	0xbf0dfc2b	-0.554629
192	0x3d8e96ec	0.0696238
193	0x3e524cc2	0.20537093
194	0xbc9dc607	-0.019259466
195	0x3e039394	0.12849265
196	0xbeb56311	-0.35427144
197	0x3d4eb568	0.05046597
198	0x3e61822a	0.2202231
199	0xbce9204f	-0.028457789
200	0xbe2355c8	-0.15950692
201	0x3e366a4e	0.1781399
202	0x3d8cd09a	0.06875725
203	0xbe275b5c	-0.16343445
204	0xbdf320c5	-0.11871485
205	0xbe37ec2e	-0.17961189
206	0xbe9fda74	-0.31221354
207	0xbde93457	-0.11386936
208	0x3d125169	0.03572217
209	0x3e014b2e	0.12626335
210	0xbe7ca17d	-0.24670978
211	0xbd6975d8	-0.05699715
212	0x3d7e3de0	0.062070727
213	0xbde97e3f	-0.11401033
214	0x3cfc3e10	0.030791312
215	0xbbca0f08	-0.0061663426
216	0x3d903034	0.07040444
217	0xbdad2ff4	-0.08456412
218	0x3d846c68	0.06465989
219	0xbe946866	-0.289859
220	0x3d337002	0.04380799
221	0x3d5a7858	0.053337425
222	0x3e158fbf	0.14605616
223	0x3dc534ad	0.09629188
224	0xbcb911a0	-0.022591412
225	0x3e7f9630	0.24959636
226	0xbd21f240	-0.03953767
227	0xbd835148	-0.064119875
228	0xbdf87b30	-0.12132871
229	0xbdd3a5f0	-0.103343844
230	0x3d133040	0.035934687
231	0xbe2e0cd2	-0.16997078
232	0x3e637a50	0.22214627
233	0x3da3101c	0.07962057
234	0xbe843e44	-0.25828755
235	0xbdc0318f	-0.093844526
236	0xbe39bad6	-0.18137679
237	0x3de26830	0.110550284
238	0xbe315058	-0.17315805
239	0x3c733260	0.014843553
240	0xba5a1e00	-0.00083205104
241	0x3df8a4ac	0.12140784
242	0xbe9f5640	-0.3112049
243	0xbdd445ac	-0.10364851
244	0xbd1d5c70	-0.038418233
245	0xbe908d74	-0.2823292
246	0xbe5bc944	-0.21463495
247	0x3c51b640	0.012799799
248	0x3e5af2a8	0.21381629
249	0x3de17c98	0.110100925
250	0xbe5cf110	-0.21576333
251	0xbdb3717e	-0.08761881
252	0x3d8ebf6d	0.06970105
253	0xbcdcec60	-0.026968181
254	0xbde079ef	-0.10960757
255	0xbe16940c	-0.14704913

bias f4 [28]
0	0xbed973a0	-0.42471027
1	0xbd69fde2	-0.057126887
2	0x3d56b31b	0.052416902
3	0xbeb38a70	-0.35066557
4	0x3f5b0ed6	0.8556951
5	0xbf0a0ab2	-0.5392257
6	0xbd7b9288	-0.06141904
7	0x3e5552de	0.20832393
8	0xbf12027c	-0.5703504
9	0xbe88fe9a	-0.26756746
10	0x3ce5346a	0.027979095
11	0x3f0ab010	0.541749
12	0xbeaf21e7	-0.34205553
13	0xbe84c7d8	-0.2593372
14	0x3ae3609a	0.0017347515
15	0xbeb1b739	-0.347101
16	0xbdef4b1d	-0.116842486
17	0x3d7c558c	0.06160502
18	0xbed7cd64	-0.42148888
19	0xbe000db4	-0.12505227
20	0xbd7f92c9	-0.062395845
21	0xbdb09520	-0.08622193
22	0xbe1a6102	-0.15076068
23	0xbe954132	-0.29151303
24	0x3f2a659c	0.66561294
25	0x3bd08332	0.006363296
26	0xbe5bb3c4	-0.21455294
27	0xbe294313	-0.16529493
